data.pth (torch, 5015 bytes, 6 tensors)

l1.weight f4 [8, 54]
0	0xbdb2211c	-0.08697721
1	0x3f43ef7d	0.76537305
2	0xbf047b27	-0.51750416
3	0x3e84dad8	0.25948215
4	0x3e4e15b0	0.2012546
5	0xbe5cf760	-0.21578741
6	0xbe1bc8e4	-0.15213352
7	0xbe6c920f	-0.23102592
8	0xbf0f1752	-0.5589496
9	0xbe30e071	-0.17273118
10	0x3e8cfe97	0.27537987
11	0xbe30bcbf	-0.17259501
12	0x3e88096d	0.2656969
13	0xbe61fde3	-0.22069506
14	0x3f3e4c3c	0.74335074
15	0xbe0e0f40	-0.13873005
16	0x3ec1e04f	0.37866446
17	0xbe901d50	-0.28147364
18	0x3e16b2fb	0.14716713
19	0x3ec91384	0.39272702
20	0x3e97dd0b	0.2966083
21	0x3ea63490	0.32461977
22	0x3ea1604e	0.31518787
23	0x3e9d4fc9	0.30724934
24	0xbe423f59	-0.18969478
25	0x3ea29516	0.3175437
26	0x3d6fb4e4	0.05852212
27	0x3f4e03f2	0.8047477
28	0xbd5b5b59	-0.053553913
29	0x3f233aea	0.6376177
30	0xbe8a8346	-0.2705328
31	0xbe3870b0	-0.18011737
32	0xbe3832f8	-0.17988193
33	0xbec12cbf	-0.3772945
34	0x3f291ba5	0.6605781
35	0xbdcfbe6c	-0.10143742
36	0x3deb0206	0.11474995
37	0xbefacf08	-0.48986077
38	0xbe12fb0d	-0.14353581
39	0xbce7c87c	-0.02829384
40	0xbe23564b	-0.15950887
41	0x3e2a1a2e	0.1661155
42	0xbe316571	-0.17323853
43	0x3f1e5bf7	0.6185908
44	0xbe8a518c	-0.2701534
45	0x3f2d8ad9	0.6778999
46	0x3eab5ef6	0.33470887
47	0x3dbf2157	0.09332531
48	0x3db84938	0.0899834
49	0xbc140da8	-0.009036459
50	0xbe4c6764	-0.19961315
51	0xbca827e0	-0.020526826
52	0xbcb43730	-0.021998972
53	0x3e9fd2b4	0.3121544
54	0xbe4f323a	-0.20234004
55	0xbe899515	-0.26871553
56	0x3ef55263	0.4791442
57	0x3edb3d00	0.42819977
58	0x3f35fdc9	0.7109037
59	0xbe992bc5	-0.29916206
60	0x3e86ee06	0.26353472
61	0x3eaf2080	0.34204483
62	0x3eb7f430	0.35928488
63	0x3ee1ba30	0.44087362
64	0x3f08485c	0.5323541
65	0xbdd0c14f	-0.10193121
66	0x3e902504	0.2815324
67	0xbb339efd	-0.0027407997
68	0xbe6cf031	-0.23138501
69	0xbdde8016	-0.10864274
70	0x3f04fbfc	0.51947
71	0xbe99d840	-0.30047798
72	0xbea08785	-0.31353393
73	0x3f3e4d11	0.74336344
74	0xbe87c6ae	-0.26518768
75	0x3f31c4d3	0.69440955
76	0x3f10403f	0.5634803
77	0x3ea7c209	0.32765225
78	0x3e892fb6	0.26794213
79	0x3f0506ac	0.51963305
80	0xbeff2ce4	-0.49838936
81	0xbec4db2d	-0.38448468
82	0xbebbfa6e	-0.367145
83	0xbec4e0d6	-0.38452786
84	0xbd807f65	-0.062742986
85	0xbe1810da	-0.14850178
86	0x3d179642	0.03700853
87	0x3f0119ba	0.5042988
88	0xbdad4ac1	-0.08461524
89	0xbca45049	-0.020057814
90	0xbe8805b0	-0.2656684
91	0x3ead34b2	0.33829266
92	0x3ecc2f4b	0.39879832
93	0x3e68c35a	0.2273077
94	0xbe87b6c2	-0.2650662
95	0xbf1a71c3	-0.60329837
96	0xbd60c7f2	-0.054878183
97	0xbe2efd29	-0.1708876
98	0x3ea321e1	0.31861785
99	0xbe50894a	-0.20364872
100	0xbf4189c5	-0.75600845
101	0xbe64c320	-0.2234006
102	0x3e280142	0.1640673
103	0xbede57eb	-0.4342645
104	0xbe5bb4d6	-0.21455702
105	0xbe671886	-0.22567949
106	0x3eb6d2de	0.35707754
107	0x3d861d42	0.06548549
108	0xbe208959	-0.15677394
109	0x3efbdd31	0.49192193
110	0xbeb380a1	-0.35059074
111	0x3e899657	0.26872513
112	0x3e2fd533	0.17171173
113	0x3e810bea	0.25204402
114	0xbb74b58b	-0.0037339653
115	0x3d31adcc	0.043378636
116	0xbe69ab48	-0.22819245
117	0xbbe4655e	-0.0069700917
118	0x3e9e067b	0.3086432
119	0xbea04c2f	-0.31308123
120	0x3edde702	0.43340307
121	0xbec7d1aa	-0.39027148
122	0x3eba1101	0.36341098
123	0xbe2e76c3	-0.17037492
124	0x3ed27605	0.41105667
125	0x3e37294a	0.17886844
126	0x3e778ece	0.2417557
127	0x3f13d1c6	0.57741964
128	0xbe73c02c	-0.23803777
129	0x3f07c5fd	0.5303648
130	0x3f005340	0.5012703
131	0x3ee85a5a	0.45381433
132	0xbdc91d02	-0.09819986
133	0x3ec9be62	0.39403063
134	0x3eb722f4	0.35768855
135	0x3f0cbcf7	0.5497584
136	0x3d92ce48	0.07168251
137	0x3e971bcf	0.29513404
138	0x3e6f5347	0.23371612
139	0xbe95c400	-0.292511
140	0xbc0d6596	-0.008630177
141	0xbe2f25d8	-0.1710428
142	0x3f2ffa25	0.68741065
143	0xbe9c4043	-0.30517778
144	0x3e59fdaa	0.21288171
145	0xbee1ad45	-0.44077507
146	0xbd87d317	-0.06632059
147	0xbcf32430	-0.029680341
148	0x3ddce7e2	0.10786416
149	0x3ed7473a	0.4204653
150	0xbe952429	-0.2912915
151	0x3efc49f2	0.49275166
152	0xbe883851	-0.26605466
153	0x3ef990fd	0.4874343
154	0xbf4bbb51	-0.795827
155	0xbe315402	-0.17317203
156	0x3e8bc00a	0.27294952
157	0x3ea3dc5f	0.32004067
158	0xbea9f663	-0.3319579
159	0x3e5ceb1a	0.21574059
160	0x3d88858e	0.066660985
161	0x3d915e67	0.07098084
162	0x3e46a0bc	0.19397253
163	0x3f215ccc	0.6303222
164	0xbe873095	-0.26404253
165	0xbd9357cf	-0.071944825
166	0x3d99b5b9	0.07505364
167	0xbdb3a045	-0.08770803
168	0xbd2c1cab	-0.042019527
169	0xbdb0c881	-0.08631993
170	0xbeffa002	-0.49926764
171	0xbe9056a7	-0.2819111
172	0x3dca9726	0.098921105
173	0xbe9996c9	-0.29997852
174	0x3e97eeb3	0.296743
175	0xbe2ae7e1	-0.16690017
176	0x3f0281b1	0.50979143
177	0xbe21bd78	-0.15794933
178	0x3bd23fe1	0.0064163064
179	0xbb1c401f	-0.002384193
180	0x3eb57ddd	0.3544759
181	0x3e5825a4	0.21108109
182	0x3eee346e	0.46524376
183	0x3e8fe228	0.2810223
184	0x3e135d4f	0.14391063
185	0x3e4a4d38	0.19756019
186	0xbe581435	-0.21101458
187	0x3e107af2	0.141094
188	0x3eb4a9c1	0.35285762
189	0x3f29c987	0.6632313
190	0x3e56a7e1	0.20962478
191	0x3edfb53e	0.43692964
192	0x3d289003	0.041152965
193	0xbe1521ac	-0.14563626
194	0x3e40115a	0.18756619
195	0xbeb11932	-0.34589535
196	0x3f313254	0.6921742
197	0xbe2291a9	-0.15875877
198	0x3ec34568	0.3813889
199	0xbef481ca	-0.4775527
200	0xbe08c7bd	-0.13357444
201	0xbd844cb4	-0.064599425
202	0xbe260eff	-0.16216658
203	0x3e90e76f	0.2830157
204	0xbe84792d	-0.258737
205	0x3ed84b32	0.4224487
206	0xbea2a323	-0.31765088
207	0x3f0eb84d	0.5574997
208	0x3e6715d0	0.22566915
209	0x3ee5c3ef	0.44876048
210	0x3e84a5df	0.259078
211	0x3ea6ef7b	0.32604584
212	0xbe1f7628	-0.15572417
213	0x3ed6aab9	0.41927126
214	0x3d69150c	0.056904837
215	0x3e94f2a4	0.2909137
216	0xbe3e2425	-0.18568476
217	0xbe1f7282	-0.15571025
218	0x3ef79590	0.48356295
219	0x3ea39b20	0.31954288
220	0x3f3f45b6	0.74715745
221	0xbe78d010	-0.2429812
222	0x3e9e4620	0.30912876
223	0x3eecd2bc	0.46254528
224	0x3ee95047	0.4556906
225	0x3ec45c54	0.3835169
226	0x3e9b605f	0.30346963
227	0xbde3d7ec	-0.11125168
228	0x3e939c23	0.2883006
229	0xbe70cc09	-0.23515333
230	0xbdbce375	-0.092230715
231	0xbe2617c5	-0.16220005
232	0x3ea3fbd7	0.32028076
233	0xbe8fb4f1	-0.28067735
234	0x3e9842bb	0.2973841
235	0x3ef721aa	0.4826787
236	0xbe86e271	-0.26344636
237	0x3f140dba	0.57833445
238	0x3f25427e	0.64554584
239	0x3da05d86	0.07830338
240	0x3bf3d6bb	0.0074413694
241	0x3ed0e16a	0.40796977
242	0x3e45eab8	0.1932782
243	0xbd94148e	-0.07230483
244	0xbc55a0ea	-0.013038853
245	0xbe9558d4	-0.29169333
246	0xbdf8cf48	-0.12148911
247	0xbe73ef01	-0.23821642
248	0x3a9c2e01	0.0011915566
249	0x3f16aaff	0.5885467
250	0x3dbb6059	0.09149236
251	0xbdf917a7	-0.121627145
252	0x3dec447c	0.115365
253	0x3f1dc7e1	0.61633116
254	0x3ef44b81	0.47713855
255	0x3f11b903	0.5692293

l1.bias f4 [8]
0	0x3f0919b6	0.53554857
1	0x3f30c658	0.6905265
2	0x3f49106d	0.7854069
3	0x3f2fca2f	0.6866788
4	0x3f0126e2	0.50449955
5	0x3f54f36b	0.83183926
6	0x3f67ee6c	0.9059818
7	0x3f146adf	0.5797557

l2.weight f4 [8, 8]
0	0xbf524384	-0.8213427
1	0x3f7d634d	0.98979646
2	0x3f8447c2	1.0334399
3	0xbe73f9c0	-0.23825741
4	0x3f54ba5a	0.8309685
5	0x3cab8f88	0.020942464
6	0x3fb97c00	1.4490967
7	0x3f944799	1.158435
8	0x3bf11856	0.0073576374
9	0xbf0e780a	-0.55651915
10	0xbede141f	-0.43374726
11	0x3e90e922	0.28302866
12	0xbed9a1ff	-0.42506406
13	0x3f6a7420	0.9158344
14	0x3f586e6d	0.84543496
15	0x3f7f2582	0.9966661
16	0x3f84a4e0	1.0362816
17	0x3f71efeb	0.9450671
18	0x3f517b02	0.8182832
19	0x3efc6bea	0.49301082
20	0x3f0236f6	0.50865114
21	0xbeb821cd	-0.35963288
22	0x3e36598d	0.17807598
23	0xbfbaea8c	-1.4602828
24	0x3ecb238a	0.39675552
25	0xbf7955c7	-0.9739651
26	0x3f1fab94	0.6237118
27	0x3f218728	0.6309686
28	0x3d5f14f3	0.054463338
29	0xbf9b13bf	-1.2115401
30	0x3f526a94	0.82193875
31	0x3df5107b	0.11966034
32	0x3fba951f	1.4576758
33	0xbf3e7a7c	-0.74405646
34	0x3fc09356	1.5044963
35	0x3fbc95fe	1.4733274
36	0x3c26a426	0.010170972
37	0x3f2d2174	0.6762917
38	0x3fa64f67	1.2992982
39	0xbf1dacd8	-0.61591864
40	0x3f3448e6	0.70423734
41	0xbf30fb94	-0.6913388
42	0x3edf8f7f	0.43664166
43	0x3f266f6e	0.6501378
44	0x3f085a69	0.53262955
45	0xbf326fa9	-0.6970163
46	0x3e1565cd	0.14589615
47	0x3ed6a600	0.41923523
48	0x3e4ab64b	0.19796102
49	0xbe9e1a88	-0.30879617
50	0x3d65ef9d	0.056136716
51	0x3e6397e5	0.22225912
52	0xbd573480	-0.052540302
53	0xbeaa7706	-0.33293933
54	0xbe86f9a4	-0.26362336
55	0xbeaa1a1b	-0.33223042
56	0xbd8cc575	-0.068735994
57	0x3fb4c9a2	1.4124033
58	0x3ee65b10	0.4499135
59	0x3d41db97	0.047328558
60	0x3fa25f94	1.2685418
61	0xbf8d8e0a	-1.1058972
62	0x3d9127b1	0.07087649
63	0x3ce23732	0.02761421

l2.bias f4 [8]
0	0x3d21355d	0.03935753
1	0x3f177843	0.5916788
2	0x3e86c54c	0.263224
3	0xbe1da92e	-0.15396568
4	0x3f4556ea	0.77085745
5	0xbed67edd	-0.41893664
6	0xbe87b052	-0.2650171
7	0x3ec01146	0.3751318

l3.weight f4 [7, 8]
0	0x3f2bf4f6	0.67170656
1	0x3f1daad5	0.61588794
2	0xbedf31e8	-0.43592763
3	0xbeaa0cff	-0.3321304
4	0xbfe3fab2	-1.7810881
5	0xbf20869d	-0.62705404
6	0x3dd6e2e5	0.104924954
7	0xbf863a95	-1.0486628
8	0xbfa3c4b1	-1.27944
9	0xbf540a98	-0.82828665
10	0x3eaa69e5	0.33283916
11	0x3e6e4bb5	0.23271067
12	0x3ef78c4d	0.48349229
13	0x3ec97773	0.39348945
14	0xbe680d2e	-0.22661278
15	0xbeecedfb	-0.46275315
16	0x3dcffefb	0.101560555
17	0xbbefaaed	-0.007314077
18	0xbf4d4c85	-0.80194885
19	0xbf72736e	-0.9470738
20	0x3ebe05a9	0.37113693
21	0xbf9ba484	-1.2159581
22	0xbeb9929e	-0.36244673
23	0xbf45c82a	-0.7725855
24	0xbebcc23d	-0.36866942
25	0xbfecd7e3	-1.8503383
26	0x3f3c5bd7	0.73577636
27	0xbe0610fd	-0.13092418
28	0x3d162e0e	0.036665015
29	0x3d45ce3c	0.048292384
30	0x3e861471	0.2618747
31	0x3f38754d	0.72053987
32	0xbea29781	-0.31756213
33	0xbf324f2c	-0.69652057
34	0xbf02068c	-0.5079124
35	0x3ee9b97c	0.45649326
36	0x3cfd8062	0.030945007
37	0x3f1bab05	0.6080783
38	0xbe1aa076	-0.15100273
39	0x3c176a6c	0.009241682
40	0x3ee8ef63	0.45495138
41	0xbeeb4a4d	-0.45955124
42	0xbecdf778	-0.40227866
43	0xbf6a35ca	-0.91488326
44	0xbf98abb4	-1.19274
45	0x3e53962f	0.20662759
46	0xbdba9a1c	-0.09111425
47	0x3f521446	0.82062185
48	0xc025ec65	-2.5925534
49	0x3f1ec49b	0.62018746
50	0xbee93b58	-0.45553088
51	0xbf6a35af	-0.91488165
52	0x3f483e9b	0.7822053
53	0xbf7f13cd	-0.9963959
54	0xbe880f38	-0.2657411
55	0xbe3a98ce	-0.18222353

l3.bias f4 [7]
0	0x3f095146	0.5363964
1	0xbf56261c	-0.836519
2	0x3dda9db5	0.106746115
3	0xbd65cc99	-0.056103323
4	0xbf4cb043	-0.79956454
5	0xbe2bba17	-0.16770206
6	0x3f937955	1.1521403
