data.pth (torch, 3991 bytes, 6 tensors)

l1.weight f4 [8, 32]
0.5904575 -0.09573871 -0.17911361 0.10467456 0.33689955 -0.3334242 -0.11350262 0.3741078
-0.3166808 -0.2079986 0.3336715 -0.24574307 0.27107003 0.65393573 0.32129118 0.31199992
0.24964206 0.36816645 -0.19123313 -0.2726642 0.043878954 0.6476901 -0.21131277 -0.08490923
-0.14412081 -0.08040405 1.1994739 0.6027031 0.33555993 -0.07241981 0.22326301 0.3162312
0.19366547 0.057863995 -0.017319124 0.02195291 -0.31248632 -0.119743556 -0.11044293 -0.07889044
0.039202683 -0.075105295 -0.0019489207 -0.10465793 -0.085883155 0.12124338 -0.08885535 -0.12702623
-0.031186335 -0.13603218 -0.027268924 0.039839882 0.7628605 0.16642694 -0.09126229 0.6465935
0.055228963 0.02704488 -0.17816903 0.033771038 0.037086762 -0.03276369 -0.13809764 0.2522525
-0.3232267 -0.06289735 0.48049065 0.34614244 0.24988987 -0.34081084 -0.08469032 0.24563926
0.5138699 0.49035576 0.35163915 -0.33912677 0.45305544 0.14284995 0.43632454 0.2965457
0.4407625 0.024531148 0.7476938 0.4118179 -0.16027807 -0.10719216 0.59477097 -0.29262385
0.53908485 0.6396817 -0.435025 -0.16040516 0.43871906 -0.060326695 -0.15922898 0.101851515
-0.40464503 -0.16916944 0.60097337 0.020234501 -0.0530866 0.5709753 -0.05632816 0.1304936
0.2601079 0.27206805 -0.04642323 0.73878527 -0.35184643 -0.1581058 -0.11439963 -0.1093516
-0.004227737 -0.13405344 0.37773386 0.57347405 0.54429406 -0.19963089 0.63487214 0.52812064
0.40787402 0.61167157 -0.71618915 -0.15335286 0.13963409 0.16754113 0.06554 0.1556609
0.51860785 -0.08725601 -0.009001013 0.377284 0.10369428 -0.47368592 -0.04544202 0.19297265
-0.2523906 -0.034090314 0.43515435 -0.4723298 0.35468283 0.44201517 0.4390694 0.53060555
0.11735878 0.13503008 -0.27454174 -0.31374097 -0.19408208 0.18888846 -0.18392375 -0.341063
-0.21805586 -0.037778687 0.84896857 0.36146304 0.22315936 -0.02538424 -0.118596874 0.37578902
-0.14253831 -0.16800651 0.27488434 0.30221066 0.3248837 -0.16398826 -0.14622478 0.51633674
0.16334315 0.31345367 0.387014 -0.10254608 0.6337014 -0.20045839 0.4996173 0.48328984
0.48274875 0.28453696 0.40041617 0.3099951 0.10303851 -0.07271804 0.36143395 0.08667878
0.1792318 0.4500404 -0.6096998 -0.18833484 0.54239637 -0.42015284 -0.2908069 -0.038450386
-0.26446557 -0.29839802 0.07040019 0.38375545 0.28388488 -0.30760098 -0.06611354 0.38033524
0.21844761 0.16746162 0.17735861 -0.26912755 0.43367207 -0.057522237 0.68222344 0.60216945
0.43618774 0.23804736 0.107689865 0.21512075 0.029977357 -0.15609619 0.07010566 0.014458797
-0.12707329 0.02187436 -0.5220605 -0.15253708 0.19571738 -0.25453016 -0.34751803 0.0028596723
0.29048806 0.7199283 -0.122853726 -0.23362212 -0.31154376 0.4396424 0.697445 -0.11791882
-0.1906783 -0.066254094 -0.27558553 0.5146021 -0.40611503 0.21980324 -0.29898757 -0.40376103
-0.087841906 0.5800099 -0.08872803 -0.16503197 0.24048299 0.16640683 -0.22701575 0.076429754
-0.11178015 -0.18073533 0.68712 0.27124992 -0.38155344 0.786748 0.70964867 0.043114685
00000000: 3928 173f a812 c4bd 8f69 37be 9e5f d63d
00000010: 197e ac3e 94b6 aabe 1074 e8bd 0f8b bf3e
00000020: fc23 a2be 96fd 54be fed6 aa3e 12a4 7bbe
00000030: b1c9 8a3e 5568 273f 4780 a43e 74be 9f3e
00000040: 2ba2 7f3e 5080 bc3e 9ed2 43be a49a 8bbe
00000050: 6bba 333d 05cf 253f 6062 58be e4e4 adbd
00000060: 6894 13be e1aa a4bd 5c88 993f c04a 1a3f
00000070: 83ce ab3e d650 94bd 0f9f 643e 0ee9 a13e
00000080: 3e50 463e cc02 6d3d d6e0 8dbc 97d6 b33c
00000090: 35fe 9fbe 1c3c f5bd e72f e2bd 5091 a1bd
000000a0: fe92 203d ced0 99bd ed72 ffba e656 d6bd
000000b0: 82e3 afbd 734e f83d cbf9 b5bd 2a13 02be
000000c0: 7c7a ffbc 054c 0bbe 1463 dfbc 252f 233d
000000d0: d34a 433f d36b 2a3e b9e7 babd 2787 253f
000000e0: c437 623d 398d dd3c f171 36be 8053 0a3d
000000f0: 4ae8 173d 3833 06bd 7869 0dbe 3d27 813e
00000100: f87d a5be 53d0 80bd df02 f63e 9539 b13e
00000110: 21e3 7f3e c27e aebe 1e72 adbd dc88 7b3e
00000120: fa8c 033f e90f fb3e 0c0a b43e 06a2 adbe
00000130: e2f6 e73e 4247 123e ee65 df3e d7d4 973e
00000140: 9fab e13e 8cf5 c83c dc68 3f3f ccd9 d23e
00000150: ef1f 24be 9087 dbbd e942 183f cbd2 95be
00000160: 7701 0a3f 2ec2 233f 99bb debe 4041 24be
00000170: c99f e03e 2019 77bd ec0c 23be 8797 d03d
00000180: a22d cfbe c13a 2dbe 64d9 193f d3c2 a53c
00000190: 5671 59bd 702b 123f 5bb8 66bd 1da0 053e
000001a0: dd2c 853e 814c 8b3e 4926 3ebd 0821 3d3f
000001b0: 3725 b4be 7de6 21be 5a4a eabd bbf3 dfbd
000001c0: d488 8abb 4e45 09be 5566 c13e 32cf 123f
000001d0: db56 0b3f 0a6c 4cbe fb86 223f ea32 073f
000001e0: ddd4 d03e 8296 1c3f 2c58 37bf 8808 1dbe
000001f0: 3dfc 0e3e e78f 2b3e d639 863d 9265 1f3e
00000200: 7cc3 043f 47b3 b2bd fc78 13bc 5e2b c13e
00000210: ab5d d43d f686 f2be 6921 3abd 9f9a 453e
00000220: 5739 81be 49a2 0bbd 8dcc de3e 36d5 f1be
00000230: fd98 b53e d04f e23e b4cd e03e c4d5 073f
00000240: cd59 f03d 5345 0a3e bc90 8cbe a8a2 a0be
00000250: 74bd 46be fa6b 413e 8256 3cbe cf9f aebe
00000260: 094a 5fbe d3bd 1abd 0156 593f af11 b93e
00000270: e383 643e 9cf2 cfbc ebe2 f2bd 6b67 c03e
00000280: 90f5 11be e609 2cbe a4bd 8c3e 5bbb 9a3e
00000290: 2857 a63e 8aec 27be f3bb 15be a52e 043f
000002a0: 6d43 273e 007d a03e b326 c63e ae03 d2bd
000002b0: 413a 223f f744 4dbe d7cd ff3e c471 f73e
000002c0: d82a f73e d4ae 913e 5903 cd3e aeb7 9e3e
000002d0: db05 d33d 32ed 94bd df0d b93e a584 b13d
000002e0: 8a88 373e b26b e63e 4915 1cbf d9da 40be
000002f0: 7dda 0a3f 461e d7be a4e4 94be 277e 1dbd
00000300: 0868 87be a0c7 98be fa2d 903d 987b c43e
00000310: 5c59 913e e07d 9dbe 8966 87bd 4dbb c23e
00000320: bbb0 5f3e 0f7b 2b3e 7f9d 353e 16cb 89be
00000330: 440a de3e 709c 6bbd 32a6 2e3f c727 1a3f
00000340: 0054 df3e b0c2 733e 818c dc3d 9d48 5c3e
00000350: 1393 f53c aed7 1fbe 8e93 8f3d 97e4 6c3c
00000360: 801f 02be dc31 b33c c2a5 05bf ae32 1cbe
00000370: 236a 483e c751 82be e2ed b1be 5769 3b3b
00000380: daba 943e 394d 383f bc9a fbbd a33a 6fbe
00000390: aa82 9fbe cf18 e13e c18b 323f 6c7f f1bd
000003a0: 2c41 43be 3ab0 87bd 8c19 8dbe f7bc 033f
000003b0: 4fee cfbe 1a14 613e e614 99be c4b9 cebe
000003c0: 75e6 b3bd 877b 143f 0bb7 b5bd 24fe 28be
000003d0: 2c41 763e 8d66 2a3e d176 68be 3487 9c3d
000003e0: feec e4bd af12 39be 19e7 2f3f 45e1 8a3e
000003f0: f95a c3be 5168 493f 89ab 353f 0699 303d

l1.bias f4 [8]
0.64347035 0.03904525 0.34052178 0.71646595 0.47370484 0.7407255 0.7183226 0.5822788
00000000: 79ba 243f e9ed 1f3d df58 ae3e 506a 373f
00000010: 7189 f23e 30a0 3d3f fde3 373f 3910 153f

l2.weight f4 [8, 8]
0.06690815 -0.4833309 0.7106575 -0.3472549 0.9477572 0.6838432 0.96489877 -0.4112437
-0.96522075 -0.3073109 0.75307846 0.73252255 -0.89004785 0.43857986 0.17967182 -0.96741515
1.2584186 -0.5214164 -0.12805575 -0.7369574 1.2220097 0.6962408 0.7364979 -0.3437529
0.92039394 0.75265664 -0.6886397 0.34334785 0.58166146 -0.3637952 -0.23447032 1.430764
-0.20271619 -0.09558019 0.09588194 0.08011821 -0.24203527 -0.15143096 -0.22244255 -0.14975572
0.033783615 0.10675144 -0.13058054 0.045675218 -0.20996468 -0.03133744 0.06349194 -0.21339488
-0.2336857 0.50415385 0.31024614 1.3106018 -0.34847102 1.2519767 1.1088848 -0.33627465
-0.19575582 -0.37010992 0.9589601 0.15275785 0.69198143 0.5604284 0.6537533 -0.58467203
00000000: 2407 893d 2677 f7be a6ed 353f 65cb b1be
00000010: 37a0 723f 5910 2f3f 9b03 773f 898e d2be
00000020: b518 77bf db57 9dbe c0c9 403f 9986 3b3f
00000030: 2dda 63bf 8a8d e03e e4fb 373e 85a8 77bf
00000040: dc13 a13f 8c7b 05bf 0c21 03be 3da9 3cbf
00000050: d06a 9c3f d63c 323f 208b 3c3f 6100 b0be
00000060: f09e 6b3f 1bae 403f b14a 30bf 4acb af3e
00000070: c4e7 143f 5d43 babe fd18 70be 4623 b73f
00000080: d594 4fbe 8cbf c3bd c05d c43d 0415 a43d
00000090: 18d8 77be b810 1bbe fbc7 63be 9059 19be
000000a0: b060 0a3d 80a0 da3d e8b6 05be f015 3b3d
000000b0: fb00 57be b05b 00bd 1008 823d 3084 5abe
000000c0: 4e4b 6fbe 3a10 013f 95d8 9e3e cdc1 a73f
000000d0: cb6a b2be c640 a03f f0ef 8d3f 312c acbe
000000e0: 3774 48be 0c7f bdbe 697e 753f 8e6c 1c3e
000000f0: b225 313f 3c78 0f3f 605c 273f 11ad 15bf

l2.bias f4 [8]
0.057197142 0.018748395 0.22870514 0.6149806 -0.116724044 -0.127191 0.93648064 -0.15665275
00000000: 8d47 6a3d 3c96 993c ae31 6a3e 5e6f 1d3f
00000010: 040d efbd 5c3e 02be 32bd 6f3f 9469 20be

l3.weight f4 [5, 8]
0.24051414 0.6968353 -1.0993057 -1.6410197 -0.19640389 -0.2313792 0.25110942 0.5348916
-0.65859336 -0.5603347 -0.7920667 -0.021320816 -0.15664062 0.030013144 0.78980875 -1.4502411
0.63756984 -0.5932562 0.4869329 -1.099613 0.2072837 0.15441611 0.034608196 0.4258761
0.2578949 -0.5040086 0.63224155 0.12551025 0.08965331 -0.09343523 -1.3204646 -1.1231177
-0.88833266 -0.014075246 -1.3980838 0.6832246 0.27309737 -0.017709434 -1.2579254 -0.5199671
00000000: 5749 763e cc63 323f 0db6 8cbf ef0c d2bf
00000010: 1a1e 49be abee 6cbe 6a91 803e a8ee 083f
00000020: 9399 28bf 1872 0fbf e2c4 4abf fea8 aebc
00000030: 6666 20be 20de f53c e830 4a3f 80a1 b9bf
00000040: c737 233f a3df 17bf 454f f93e 1ec0 8cbf
00000050: 2e42 543e 421f 1e3e 53c1 0d3d 6f0c da3e
00000060: cd0a 843e b506 01bf 95da 213f c285 003e
00000070: 289c b73d f85a bfbd fc04 a9bf 52c2 8fbf
00000080: c569 63bf dc9b 66bc 69f4 b2bf cfe7 2e3f
00000090: 6bd3 8b3e 6013 91bc b303 a1bf 901c 05bf

l3.bias f4 [5]
-0.47203717 0.34213936 -0.21073101 -0.08749145 0.1779304
00000000: dbae f1be e42c af3e dfc9 57be b82e b3bd
00000010: 6333 363e
